…
model_speed: 1
device: cuda
lr: 0.0005
lr_step_size: 6
lr_gamma: 0.7
num_epochs: 31
start_epoch: 0
train_batch_size: 8
test_batch_size: 1
size: 256
weight_decay: 0.0001
print_freq: 100
seed: 0
workers: 2
------------------ args end ------------------
[INFO] Loading data
(1600, 3, 256, 256)
(1600, 3, 256, 256)
成功读取缓存文件
(180, 3, 256, 256)
(180, 3, 256, 256)
成功读取缓存文件
[INFO] Creating model
----------------------------------------------------------------
        Layer (type)               Output Shape         Param #
================================================================
          Identity-1           [1, 3, 256, 256]               0
            Conv2d-2          [1, 64, 256, 256]           1,792
              Tanh-3          [1, 64, 256, 256]               0
            Conv2d-4          [1, 64, 256, 256]             256
              Tanh-5          [1, 64, 256, 256]               0
         AvgPool2d-6             [1, 3, 32, 32]               0
                DR-7               [1, 3, 1, 1]               0
               CDR-8               [1, 3, 1, 1]               0
              ReLU-9          [1, 64, 256, 256]               0
           Conv2d-10           [1, 3, 256, 256]           1,731
           Conv2d-11           [1, 3, 256, 256]             195
         Identity-12           [1, 3, 256, 256]               0
        AvgPool2d-13             [1, 3, 42, 42]               0
              FAN-14           [1, 3, 256, 256]               0
================================================================
Total params: 3,974
Trainable params: 3,974
Non-trainable params: 0
----------------------------------------------------------------
Input size (MB): 0.75
Forward/backward pass size (MB): 167.56
Params size (MB): 0.02
Estimated Total Size (MB): 168.33
----------------------------------------------------------------
[INFO] Start training
…
